TensorFlow Data and Deployment Specialization/Course 2 - Device-based Models with TF Lite/Week 1 - Device-based Models with TF Lite/Labs/model.tflite (tflite, 258656 bytes, 8 tensors)

StatefulPartitionedCall/sequential/conv2d/Conv2D/ReadVariableOp f4 [1, 3, 3, 16]
0	0x3e5fc248	0.21851456
1	0xbe234265	-0.15943296
2	0xbae1cb0a	-0.0017226648
3	0xbe2c037d	-0.16798206
4	0x3e261246	0.16217908
5	0xbe38d5dd	-0.18050332
6	0x3ededc7f	0.435276
7	0x3e76a215	0.24085267
8	0x3e6d127d	0.23151584
9	0x3db3b487	0.08774667
10	0xbd8bf007	-0.06832891
11	0xbe03772c	-0.12838429
12	0xbe8ca53b	-0.2746981
13	0xbe8b9446	-0.2726156
14	0x3cd2651e	0.025682982
15	0xbeb3c464	-0.35110772
16	0x3e817a66	0.25288695
17	0xbe81e7da	-0.253722
18	0x3d9bf93d	0.07615898
19	0x3e74483c	0.2385568
20	0x3e298ef5	0.1655844
21	0x3e525294	0.20539314
22	0x3da723ba	0.08161111
23	0x3e3f05ce	0.18654558
24	0x3e5514a9	0.20808662
25	0x3dcc4efd	0.09976003
26	0xbd2a967d	-0.041647423
27	0x3e927cfd	0.28610983
28	0xbdb3f95e	-0.087877974
29	0x3e546ee7	0.20745431
30	0x3e4482f5	0.19190581
31	0xbe95b9ec	-0.2924341
32	0x3db0ec7d	0.086388566
33	0xbe355080	-0.1770649
34	0xbe67831f	-0.22608612
35	0xbda671c0	-0.08127165
36	0xbded597b	-0.11589333
37	0xbde17f4f	-0.1101061
38	0xbb9dd539	-0.004816678
39	0xbe8993e0	-0.26870632
40	0xbe9f4a0c	-0.3111118
41	0xbc6a762d	-0.014310402
42	0x3e868531	0.26273492
43	0xbe1beee6	-0.15227851
44	0x3de502f1	0.11182202
45	0x3e175896	0.14779887
46	0xbc4fde87	-0.012687332
47	0xbb4dfd91	-0.0031431655
48	0xbea36f43	-0.31920823
49	0x3e851fc7	0.26000807
50	0xbdb6c0bc	-0.0892348
51	0xbd45ef98	-0.048324198
52	0xbd12f574	-0.035878614
53	0xbf77ece5	-0.9684585
54	0xbc91556e	-0.017740931
55	0x3e1e8e9d	0.1548409
56	0x3e080cd7	0.13286148
57	0x3d0b8e1f	0.034071084
58	0x3e17ff2a	0.14843431
59	0x3d5b1696	0.053488337
60	0xbe7f7c0e	-0.24949667
61	0x3d5ed367	0.054400828
62	0x3e1ef051	0.15521361
63	0x3c405e57	0.011741242
64	0xbe96e918	-0.2947471
65	0x3e730137	0.23730932
66	0x3e7eef68	0.24896014
67	0xbe3e1897	-0.18564068
68	0xbb920d0e	-0.0044571226
69	0xbeb3a858	-0.35089374
70	0x3e7b0b68	0.2451607
71	0xbe56feeb	-0.20995681
72	0xbd99e90c	-0.07515153
73	0xbd5318f6	-0.051537476
74	0x3e924ff1	0.28576615
75	0x3d9759d7	0.073901825
76	0xbe149a2b	-0.14511935
77	0x3cc5bcc4	0.024137862
78	0x3e5bc59f	0.21462105
79	0xbe8ed224	-0.278947
80	0x3db1b7ce	0.08677636
81	0x3e755cde	0.23961207
82	0x3e5fade2	0.21843675
83	0xbe8834cf	-0.2660279
84	0xbdfbd13d	-0.122957684
85	0x3e8990cc	0.26868284
86	0x3e048851	0.12942626
87	0x3e0bf650	0.1366818
88	0xbde88c22	-0.11354853
89	0xbe5025c5	-0.20326908
90	0x3e71e562	0.23622659
91	0xbdf9476c	-0.12171826
92	0x3ebec4e2	0.37259585
93	0x3d024542	0.03180433
94	0xbea06d38	-0.31333327
95	0x3d0a43e8	0.033756167
96	0xbf1ffe1b	-0.6249711
97	0xbd8959f7	-0.067066126
98	0xbd11f5e9	-0.03563491
99	0x3e5894a3	0.2115045
100	0xbe83389c	-0.25629127
101	0xbf5dc11f	-0.86622804
102	0xbee81043	-0.45324907
103	0xbde7d151	-0.11319221
104	0xbdc2760d	-0.09495173
105	0x3dc7f1c3	0.09762909
106	0xbe25ae7a	-0.16179839
107	0xbcf97b27	-0.030454231
108	0xbda222f4	-0.07916823
109	0xbe73dfa4	-0.23815781
110	0x3e5d2b1c	0.21598476
111	0x3da012d0	0.07816088
112	0xbf3bb188	-0.73317766
113	0x3ccba6d9	0.024859833
114	0x3e04dbb5	0.12974437
115	0x3e681913	0.22665815
116	0x3e7e6317	0.24842487
117	0xbe76eeb8	-0.24114501
118	0xbe9efbfe	-0.3105163
119	0xbe023ad5	-0.12717755
120	0x3dedcd4c	0.11611423
121	0x3e674727	0.22585736
122	0xbe1db733	-0.15401916
123	0x3e379253	0.17926912
124	0x3e666ec2	0.22503188
125	0x3e58c0af	0.21167253
126	0xbdc59e23	-0.09649303
127	0x3dedcff1	0.11611927
128	0xbef8388a	-0.48480636
129	0xbe09fe67	-0.13475953
130	0x3e420513	0.18947248
131	0xbad6b405	-0.0016380554
132	0xbd53b099	-0.05168209
133	0x3d8be97d	0.06831644
134	0xbdcd05e9	-0.10010893
135	0x3e15d3b3	0.14631538
136	0xbdbcebf5	-0.09224693
137	0x3d6588f9	0.05603883
138	0xbe85935d	-0.26088992
139	0xbe179317	-0.14802204
140	0x3e0c07e4	0.13674885
141	0x3cf29c65	0.02961559
142	0xbe8bed8c	-0.2732967
143	0x3e6f5567	0.23372422

StatefulPartitionedCall/sequential/conv2d/Conv2D_bias f4 [16]
0	0x3e061638	0.13094413
1	0x3cbb76bb	0.022883764
2	0x3cc00893	0.023441589
3	0x3d6bc7e1	0.057563666
4	0x3c7919aa	0.015203873
5	0x3de60157	0.11230724
6	0xbbd17e5e	-0.006393238
7	0x3aaaaa7d	0.001302078
8	0xb9a2bc92	-0.00031039544
9	0xbcc7a9a4	-0.024372883
10	0x3b29f35b	0.0025932405
11	0xbb24ccc9	-0.0025146476
12	0x3cacf9ba	0.021115173
13	0xbb2cfa7f	-0.0026394424
14	0xbc33b0ee	-0.010967476
15	0x3cb4ed7b	0.022085896

StatefulPartitionedCall/sequential/conv2d_1/Conv2D/ReadVariableOp i1 [32, 3, 3, 16] scale=0.0051722336 zero_point=0
0	0x0d	0.06723904
1	0xfc	-0.020688934
2	0x00	0.0
3	0x0a	0.051722337
4	0xef	-0.08792797
5	0x2e	0.23792274
6	0xf1	-0.07758351
7	0x1a	0.13447808
8	0xfc	-0.020688934
9	0xec	-0.10344467
10	0xf0	-0.08275574
11	0x12	0.093100205
12	0x1a	0.13447808
13	0x06	0.0310334
14	0x1d	0.14999478
15	0x05	0.025861168
16	0x33	0.2637839
17	0xd9	-0.20171711
18	0x00	0.0
19	0x10	0.08275574
20	0x03	0.0155167
21	0x17	0.11896137
22	0x09	0.046550103
23	0x06	0.0310334
24	0x0c	0.0620668
25	0xf5	-0.05689457
26	0x18	0.1241336
27	0x2d	0.2327505
28	0xf1	-0.07758351
29	0x20	0.16551147
30	0x27	0.20171711
31	0xf4	-0.0620668
32	0x12	0.093100205
33	0xef	-0.08792797
34	0xf3	-0.06723904
35	0xdf	-0.17068371
36	0xfc	-0.020688934
37	0x3f	0.32585073
38	0xfe	-0.010344467
39	0x21	0.17068371
40	0x1f	0.16033924
41	0xfd	-0.0155167
42	0x08	0.04137787
43	0xf6	-0.051722337
44	0x13	0.098272435
45	0x1a	0.13447808
46	0x26	0.19654487
47	0x02	0.010344467
48	0x05	0.025861168
49	0x13	0.098272435
50	0x15	0.1086169
51	0x17	0.11896137
52	0xdc	-0.18620041
53	0xf2	-0.07241127
54	0x21	0.17068371
55	0x0b	0.05689457
56	0x0a	0.051722337
57	0x0b	0.05689457
58	0xf8	-0.04137787
59	0x01	0.0051722336
60	0x0a	0.051722337
61	0x03	0.0155167
62	0x02	0.010344467
63	0x28	0.20688935
64	0xf0	-0.08275574
65	0xf0	-0.08275574
66	0xf2	-0.07241127
67	0xe8	-0.1241336
68	0xdf	-0.17068371
69	0x0d	0.06723904
70	0xef	-0.08792797
71	0xf0	-0.08275574
72	0xfa	-0.0310334
73	0xed	-0.098272435
74	0xf3	-0.06723904
75	0xfb	-0.025861168
76	0xf9	-0.036205634
77	0x13	0.098272435
78	0xf8	-0.04137787
79	0x19	0.12930584
80	0xe7	-0.12930584
81	0xce	-0.25861168
82	0x06	0.0310334
83	0x0b	0.05689457
84	0x07	0.036205634
85	0x2e	0.23792274
86	0xd8	-0.20688935
87	0xf9	-0.036205634
88	0x1d	0.14999478
89	0xeb	-0.1086169
90	0xf5	-0.05689457
91	0x06	0.0310334
92	0x24	0.18620041
93	0x0b	0.05689457
94	0x26	0.19654487
95	0x2a	0.2172338
96	0x4a	0.3827453
97	0x21	0.17068371
98	0xea	-0.11378914
99	0xec	-0.10344467
100	0xdf	-0.17068371
101	0x29	0.21206157
102	0x25	0.19137265
103	0x12	0.093100205
104	0xef	-0.08792797
105	0x18	0.1241336
106	0x01	0.0051722336
107	0xde	-0.17585593
108	0xed	-0.098272435
109	0x13	0.098272435
110	0xe4	-0.14482254
111	0x0e	0.07241127
112	0x0d	0.06723904
113	0xee	-0.093100205
114	0xf5	-0.05689457
115	0xe7	-0.12930584
116	0xe0	-0.16551147
117	0x0d	0.06723904
118	0x2b	0.22240604
119	0xee	-0.093100205
120	0xde	-0.17585593
121	0x0a	0.051722337
122	0xf0	-0.08275574
123	0xde	-0.17585593
124	0xd3	-0.2327505
125	0xef	-0.08792797
126	0xf0	-0.08275574
127	0xe7	-0.12930584
128	0x8f	-0.5844624
129	0xcf	-0.25343946
130	0xeb	-0.1086169
131	0xfb	-0.025861168
132	0x0b	0.05689457
133	0xfe	-0.010344467
134	0xe4	-0.14482254
135	0x16	0.11378914
136	0xf7	-0.046550103
137	0x06	0.0310334
138	0xf6	-0.051722337
139	0x25	0.19137265
140	0x02	0.010344467
141	0x06	0.0310334
142	0x1c	0.14482254
143	0x25	0.19137265
144	0xf9	-0.036205634
145	0xff	-0.0051722336
146	0x02	0.010344467
147	0xef	-0.08792797
148	0xf2	-0.07241127
149	0xd5	-0.22240604
150	0xf7	-0.046550103
151	0x1e	0.15516701
152	0x1b	0.1396503
153	0x12	0.093100205
154	0x0a	0.051722337
155	0xf0	-0.08275574
156	0xd2	-0.23792274
157	0x01	0.0051722336
158	0x1e	0.15516701
159	0xf7	-0.046550103
160	0x1a	0.13447808
161	0x12	0.093100205
162	0xee	-0.093100205
163	0xfc	-0.020688934
164	0x19	0.12930584
165	0x0f	0.07758351
166	0x03	0.0155167
167	0xe7	-0.12930584
168	0x1d	0.14999478
169	0x0d	0.06723904
170	0xfc	-0.020688934
171	0xf9	-0.036205634
172	0xd5	-0.22240604
173	0xf6	-0.051722337
174	0x18	0.1241336
175	0x0a	0.051722337
176	0x52	0.42412314
177	0x0a	0.051722337
178	0xf9	-0.036205634
179	0xeb	-0.1086169
180	0x0d	0.06723904
181	0x5c	0.4758455
182	0x31	0.25343946
183	0xf6	-0.051722337
184	0x0e	0.07241127
185	0x08	0.04137787
186	0x03	0.0155167
187	0xfc	-0.020688934
188	0x22	0.17585593
189	0x0f	0.07758351
190	0x0a	0.051722337
191	0xf3	-0.06723904
192	0xd0	-0.2482672
193	0xe9	-0.11896137
194	0x1c	0.14482254
195	0xff	-0.0051722336
196	0xef	-0.08792797
197	0xc7	-0.2948173
198	0xd2	-0.23792274
199	0x03	0.0155167
200	0x00	0.0
201	0xf8	-0.04137787
202	0xed	-0.098272435
203	0xf7	-0.046550103
204	0xe8	-0.1241336
205	0x00	0.0
206	0x0c	0.0620668
207	0x16	0.11378914
208	0x09	0.046550103
209	0xea	-0.11378914
210	0xf1	-0.07758351
211	0x2f	0.24309498
212	0xe4	-0.14482254
213	0x0a	0.051722337
214	0xce	-0.25861168
215	0xe5	-0.1396503
216	0xf7	-0.046550103
217	0xfe	-0.010344467
218	0xdc	-0.18620041
219	0xf1	-0.07758351
220	0xc4	-0.31033403
221	0xeb	-0.1086169
222	0xf9	-0.036205634
223	0x16	0.11378914
224	0x40	0.33102295
225	0xff	-0.0051722336
226	0xfb	-0.025861168
227	0xeb	-0.1086169
228	0xd6	-0.2172338
229	0x5c	0.4758455
230	0xfb	-0.025861168
231	0x05	0.025861168
232	0x00	0.0
233	0xf6	-0.051722337
234	0x09	0.046550103
235	0xda	-0.19654487
236	0x22	0.17585593
237	0x10	0.08275574
238	0xf8	-0.04137787
239	0x20	0.16551147
240	0x93	-0.56377345
241	0x18	0.1241336
242	0x1a	0.13447808
243	0x11	0.08792797
244	0xf3	-0.06723904
245	0xd2	-0.23792274
246	0x09	0.046550103
247	0x21	0.17068371
248	0xed	-0.098272435
249	0x17	0.11896137
250	0x1d	0.14999478
251	0xe9	-0.11896137
252	0xd7	-0.21206157
253	0x07	0.036205634
254	0x0e	0.07241127
255	0xdc	-0.18620041

StatefulPartitionedCall/sequential/conv2d_1/Conv2D_bias f4 [32]
0	0x3c0a8c50	0.008456305
1	0x3d78bf27	0.060729172
2	0x3d7ca3e4	0.061679736
3	0x3e01f889	0.12692465
4	0xbd54f5d4	-0.051992252
5	0x3dcc8542	0.099863544
6	0x3d88f8a0	0.066880465
7	0x3da808f3	0.08204832
8	0x3c5af65b	0.0133644
9	0x3c843f64	0.016143508
10	0x3e1c072d	0.15237112
11	0x3d8d7708	0.06907469
12	0x3db7207d	0.089417435
13	0xbc121690	-0.008916512
14	0x3cb2493f	0.021763442
15	0x3d350b55	0.04420026
16	0x3cf53ea8	0.029937103
17	0x3d51adf7	0.051191296
18	0xbd7f9603	-0.06239892
19	0x3c8240e7	0.015900088
20	0xbc80b6a2	-0.015712086
21	0x3d21aad3	0.03946955
22	0x3d2411d6	0.040056072
23	0x3d98b27e	0.0745592
24	0x3d99948a	0.07499035
25	0x3ce13b37	0.027494056
26	0x3d7738a3	0.060356747
27	0x3da32c28	0.079674065
28	0xbc3427b9	-0.010995799
29	0x3cd7190f	0.026257066
30	0x3ddbc91b	0.10731717
31	0xbd285f6a	-0.04110662

StatefulPartitionedCall/sequential/dense/MatMul/ReadVariableOp/transpose i1 [64, 3872] scale=0.0030774483 zero_point=0
0	0x02	0.0061548967
1	0xf4	-0.03692938
2	0x13	0.05847152
3	0xff	-0.0030774483
4	0x12	0.05539407
5	0xda	-0.11694304
6	0x09	0.027697034
7	0xf8	-0.024619587
8	0x1d	0.089246005
9	0x00	0.0
10	0xff	-0.0030774483
11	0xeb	-0.06462642
12	0x12	0.05539407
13	0xf7	-0.027697034
14	0x05	0.015387242
15	0x0a	0.030774483
16	0xfe	-0.0061548967
17	0x06	0.01846469
18	0x0a	0.030774483
19	0x03	0.009232345
20	0x0b	0.033851933
21	0x1e	0.09232345
22	0x04	0.012309793
23	0x05	0.015387242
24	0x07	0.02154214
25	0xfc	-0.012309793
26	0xf3	-0.040006828
27	0x0e	0.04308428
28	0x00	0.0
29	0xf3	-0.040006828
30	0xec	-0.061548967
31	0x12	0.05539407
32	0xee	-0.05539407
33	0xd1	-0.14464007
34	0x06	0.01846469
35	0xfb	-0.015387242
36	0x0b	0.033851933
37	0x03	0.009232345
38	0x10	0.049239174
39	0xfc	-0.012309793
40	0xf3	-0.040006828
41	0xf3	-0.040006828
42	0x0f	0.046161726
43	0xf1	-0.046161726
44	0xe7	-0.07693621
45	0xf6	-0.030774483
46	0xfd	-0.009232345
47	0xfa	-0.01846469
48	0xed	-0.05847152
49	0x12	0.05539407
50	0x04	0.012309793
51	0x04	0.012309793
52	0x14	0.061548967
53	0x0c	0.03692938
54	0x09	0.027697034
55	0x18	0.07385876
56	0x0d	0.040006828
57	0x07	0.02154214
58	0xc9	-0.16925965
59	0x02	0.0061548967
60	0x14	0.061548967
61	0xf1	-0.046161726
62	0xe0	-0.09847835
63	0x1c	0.08616856
64	0x3c	0.1846469
65	0xb6	-0.22773118
66	0x12	0.05539407
67	0xf5	-0.033851933
68	0x11	0.05231662
69	0xed	-0.05847152
70	0x0a	0.030774483
71	0x06	0.01846469
72	0xf4	-0.03692938
73	0x03	0.009232345
74	0xf2	-0.04308428
75	0x07	0.02154214
76	0x1f	0.0954009
77	0xfe	-0.0061548967
78	0x02	0.0061548967
79	0xf1	-0.046161726
80	0xfd	-0.009232345
81	0x01	0.0030774483
82	0xff	-0.0030774483
83	0xf8	-0.024619587
84	0x0e	0.04308428
85	0x23	0.10771069
86	0x0c	0.03692938
87	0x00	0.0
88	0x14	0.061548967
89	0x0a	0.030774483
90	0xef	-0.05231662
91	0x03	0.009232345
92	0x00	0.0
93	0x00	0.0
94	0xda	-0.11694304
95	0x14	0.061548967
96	0x27	0.12002049
97	0x21	0.101555794
98	0x0e	0.04308428
99	0xfd	-0.009232345
100	0x11	0.05231662
101	0x00	0.0
102	0xfd	-0.009232345
103	0xff	-0.0030774483
104	0xee	-0.05539407
105	0x0e	0.04308428
106	0xf0	-0.049239174
107	0xf6	-0.030774483
108	0x04	0.012309793
109	0xeb	-0.06462642
110	0xf4	-0.03692938
111	0xf8	-0.024619587
112	0x06	0.01846469
113	0xf2	-0.04308428
114	0x07	0.02154214
115	0x0e	0.04308428
116	0x00	0.0
117	0x01	0.0030774483
118	0x24	0.11078814
119	0x35	0.16310476
120	0x26	0.11694304
121	0x03	0.009232345
122	0xf8	-0.024619587
123	0x01	0.0030774483
124	0x18	0.07385876
125	0xf1	-0.046161726
126	0x10	0.049239174
127	0x0e	0.04308428
128	0x3f	0.19387925
129	0x06	0.01846469
130	0x20	0.09847835
131	0xfa	-0.01846469
132	0x2d	0.13848518
133	0x08	0.024619587
134	0x0f	0.046161726
135	0x03	0.009232345
136	0xeb	-0.06462642
137	0x0e	0.04308428
138	0xf3	-0.040006828
139	0xef	-0.05231662
140	0x1f	0.0954009
141	0xed	-0.05847152
142	0xf4	-0.03692938
143	0xf6	-0.030774483
144	0x0b	0.033851933
145	0x0f	0.046161726
146	0x33	0.15694986
147	0x0a	0.030774483
148	0x0c	0.03692938
149	0x0d	0.040006828
150	0xf2	-0.04308428
151	0x0f	0.046161726
152	0x0c	0.03692938
153	0xe7	-0.07693621
154	0xf9	-0.02154214
155	0xfa	-0.01846469
156	0x10	0.049239174
157	0xfb	-0.015387242
158	0xf9	-0.02154214
159	0x16	0.067703865
160	0x29	0.12617539
161	0x0a	0.030774483
162	0xea	-0.067703865
163	0xf9	-0.02154214
164	0x11	0.05231662
165	0xea	-0.067703865
166	0xf5	-0.033851933
167	0x05	0.015387242
168	0xfd	-0.009232345
169	0x08	0.024619587
170	0x08	0.024619587
171	0x04	0.012309793
172	0x25	0.11386559
173	0xff	-0.0030774483
174	0x17	0.07078131
175	0x06	0.01846469
176	0xfa	-0.01846469
177	0x22	0.10463324
178	0x12	0.05539407
179	0xf4	-0.03692938
180	0x21	0.101555794
181	0x03	0.009232345
182	0xf7	-0.027697034
183	0xe1	-0.0954009
184	0x00	0.0
185	0xcb	-0.16310476
186	0x0c	0.03692938
187	0x01	0.0030774483
188	0x02	0.0061548967
189	0xfb	-0.015387242
190	0xf3	-0.040006828
191	0xeb	-0.06462642
192	0x25	0.11386559
193	0x26	0.11694304
194	0xfd	-0.009232345
195	0x01	0.0030774483
196	0x11	0.05231662
197	0x05	0.015387242
198	0x02	0.0061548967
199	0x00	0.0
200	0x0a	0.030774483
201	0x1b	0.0830911
202	0xf5	-0.033851933
203	0xf1	-0.046161726
204	0x11	0.05231662
205	0x04	0.012309793
206	0xff	-0.0030774483
207	0xfe	-0.0061548967
208	0x04	0.012309793
209	0x16	0.067703865
210	0x17	0.07078131
211	0x0f	0.046161726
212	0x1e	0.09232345
213	0x07	0.02154214
214	0xc0	-0.1969567
215	0xff	-0.0030774483
216	0xf3	-0.040006828
217	0xf1	-0.046161726
218	0x07	0.02154214
219	0x01	0.0030774483
220	0x00	0.0
221	0x0e	0.04308428
222	0x04	0.012309793
223	0xea	-0.067703865
224	0xe4	-0.08616856
225	0x23	0.10771069
226	0x03	0.009232345
227	0x03	0.009232345
228	0x05	0.015387242
229	0xf8	-0.024619587
230	0xe4	-0.08616856
231	0xf6	-0.030774483
232	0xfe	-0.0061548967
233	0xde	-0.10463324
234	0x0a	0.030774483
235	0x11	0.05231662
236	0x0c	0.03692938
237	0x0b	0.033851933
238	0x04	0.012309793
239	0x07	0.02154214
240	0xf3	-0.040006828
241	0xf9	-0.02154214
242	0x0e	0.04308428
243	0x10	0.049239174
244	0x1f	0.0954009
245	0xeb	-0.06462642
246	0xde	-0.10463324
247	0xef	-0.05231662
248	0xe0	-0.09847835
249	0x01	0.0030774483
250	0x0b	0.033851933
251	0x03	0.009232345
252	0x09	0.027697034
253	0xfb	-0.015387242
254	0xfe	-0.0061548967
255	0xef	-0.05231662

StatefulPartitionedCall/sequential/dense/MatMul_bias f4 [64]
0	0x3cb7ed41	0.022451999
1	0xbbd337b1	-0.006445848
2	0xbc013f89	-0.007888683
3	0xbbcdc06b	-0.0062790415
4	0xbce87a83	-0.02837873
5	0xbbae3864	-0.005316781
6	0xbbc4be38	-0.006004121
7	0x3c9aa910	0.018879443
8	0x3d1cbc64	0.0382656
9	0xbbb94a9c	-0.005654646
10	0x3ab6ebfa	0.0013955825
11	0x3bae99f1	0.00532841
12	0xbce516ed	-0.027965033
13	0x3d04e57b	0.032445412
14	0xbbc4b127	-0.0060025635
15	0xbcdaa826	-0.026691508
16	0x3c88fa8d	0.016721034
17	0x3cd0df21	0.025497021
18	0x3c0c28c0	0.008554637
19	0x3d3612e4	0.04445161
20	0xbc212db9	-0.009837561
21	0xbbdd10c6	-0.0067463843
22	0x3d2cc9fe	0.042184822
23	0x3ca24731	0.019809337
24	0x3b0df0c3	0.0021658398
25	0x3cbbb3ef	0.022912947
26	0x3cd45413	0.025918996
27	0xbb032ff4	-0.0020017596
28	0x3b624b90	0.0034529902
29	0x392814d2	0.00016029485
30	0xbb6bbd00	-0.0035970807
31	0xbbcf10e6	-0.006319153
32	0x3c593dd7	0.013259373
33	0x3be1ac5e	0.006887003
34	0x3d07fdc6	0.033201
35	0x3be520ff	0.006992459
36	0xbd386cb0	-0.045025527
37	0x3ce1c66f	0.02756044
38	0xbb983d24	-0.0046459604
39	0xbccc5b4e	-0.024945881
40	0xbbcc8991	-0.006241985
41	0x3b97ef20	0.00463666
42	0x3a494d33	0.0007679045
43	0xbc85e0bd	-0.016342515
44	0xba8610d0	-0.0010228399
45	0x3d347e63	0.044065844
46	0xbd1c38ee	-0.03814023
47	0xbce45d49	-0.027876513
48	0x3c371139	0.01117354
49	0x3c964b46	0.01834644
50	0xbcd75d73	-0.026289677
51	0x3c5fdd24	0.013663564
52	0xbb6e20c5	-0.003633545
53	0xbab24802	-0.0013601782
54	0xbcb72da9	-0.02236064
55	0xbbc4b55d	-0.0060030655
56	0x3d39b8bc	0.045342192
57	0x3d11f3ea	0.035633005
58	0xbc33c14f	-0.010971381
59	0x3d109342	0.035296686
60	0x3cf5df7b	0.03001379
61	0x3cfa435e	0.030549701
62	0xbbdc7292	-0.006727525
63	0xbcfc6233	-0.030808544

StatefulPartitionedCall/sequential/dense_1/MatMul/ReadVariableOp/transpose f4 [10, 64]
0	0x3d57c67b	0.05267952
1	0x3e29b7b9	0.16573991
2	0xbcb81ae1	-0.022473754
3	0x3d045673	0.032309007
4	0x3be79fa4	0.007068591
5	0xbd0dc79f	-0.0346142
6	0x3e01eafb	0.12687294
7	0xbe96d294	-0.29457533
8	0x3dbd9e95	0.09258763
9	0xbd326db3	-0.04356165
10	0x3e6d7c53	0.23191957
11	0x3c280261	0.010254473
12	0xbe910bed	-0.2832941
13	0xbe7e525e	-0.24836108
14	0x3ca0d031	0.019630523
15	0xbd40f501	-0.047108654
16	0x3e35f0db	0.1776766
17	0x3d8df5e0	0.069316626
18	0x3e01821d	0.1264729
19	0xbe0579f9	-0.1303481
20	0xbe37f73a	-0.17965403
21	0xbd6475b5	-0.055776317
22	0x3e4d7a62	0.20066217
23	0x3defd261	0.117100485
24	0xbdf6d7d0	-0.12052882
25	0xbe63ad40	-0.22234058
26	0x3e6cf54f	0.23140453
27	0xbe13eb9e	-0.1444535
28	0x3e6f4276	0.23365197
29	0xbe24da61	-0.1609893
30	0x3e45adb7	0.19304548
31	0x3e443610	0.19161248
32	0x3ea04182	0.31299978
33	0x3e830313	0.25588283
34	0xbe6da09f	-0.23205803
35	0x3e7bcc76	0.24589714
36	0xbd65a0dc	-0.05606161
37	0xbe93e1c1	-0.28883174
38	0xbe745308	-0.23859799
39	0xbe96c038	-0.29443526
40	0x3e8a19e2	0.26972872
41	0xbed093e9	-0.40737846
42	0xbdc15e7b	-0.09441849
43	0xbe8bdf89	-0.2731898
44	0x3d907067	0.07052689
45	0x3e8be0fa	0.2732008
46	0xbdbc04b5	-0.09180585
47	0x3aa0ce6a	0.0012268547
48	0xbe371f9c	-0.17883152
49	0x3da3b08c	0.07992658
50	0x3e68a9fa	0.22721091
51	0xbe5d20fb	-0.21594612
52	0x3d6c825a	0.0577415
53	0x3e930ebb	0.28722176
54	0xbecfb695	-0.40568987
55	0x3c91003e	0.01770031
56	0x3e070b6f	0.13187955
57	0x3d1e9def	0.038724836
58	0x3e3b07b6	0.1826466
59	0xbde70a96	-0.11281316
60	0x3e79b5d5	0.2438577
61	0x3e83bbb2	0.25729138
62	0xbe638761	-0.22219612
63	0xbdf75ec3	-0.12078621
64	0xbe5de699	-0.21669997
65	0xbc785e42	-0.015159192
66	0xbdeb6992	-0.11494745
67	0x3e35456a	0.1770226
68	0x3eedb860	0.4642973
69	0xbe428498	-0.18995893
70	0x3e7af585	0.24507721
71	0xbe5e21a4	-0.2169252
72	0x3ea3aff0	0.31970167
73	0x3e7f7e43	0.24950509
74	0x3ea02f85	0.31286255
75	0xbe206d6b	-0.1566674
76	0x3db09537	0.086222105
77	0xbe3d903d	-0.18512054
78	0xbd378579	-0.044805024
79	0xbea52a82	-0.32258993
80	0x3d052f5a	0.03251586
81	0x3e795b9f	0.24351357
82	0x3e89c73b	0.26909813
83	0xbd98793a	-0.07444997
84	0xbd92ef4e	-0.0717455
85	0x3e342ed4	0.17595989
86	0xbd876a7d	-0.06612108
87	0xbe909122	-0.28235728
88	0x3ddccb0e	0.10780917
89	0x3d72ca2d	0.05927484
90	0xbe99823a	-0.29982167
91	0x3e7707b8	0.24124038
92	0xbeb9bd7e	-0.36277384
93	0xbeaf19a0	-0.34199238
94	0x3e8d105c	0.27551544
95	0x3db4221a	0.08795567
96	0xbdf2b27d	-0.1185045
97	0xbea4d5f7	-0.32194492
98	0xbedfda4e	-0.4372124
99	0xbd4bbb58	-0.04973921
100	0x3d4559e3	0.048181426
101	0x3da6715f	0.081270926
102	0x3e25ad2c	0.16179341
103	0x3e57f159	0.2108816
104	0x3d281136	0.04103204
105	0x3de32c91	0.11092485
106	0x3e4586d3	0.19289713
107	0x3e75c00c	0.23999041
108	0xbeaf75e5	-0.34269634
109	0x3e6c4f5b	0.23077147
110	0x3cf73878	0.030178294
111	0xbde22916	-0.11042993
112	0x3e1528ce	0.14566347
113	0x3e017a7c	0.1264438
114	0x3e758745	0.23977382
115	0x3e5a4b6c	0.21317834
116	0xbee18efa	-0.44054395
117	0xbdfe254a	-0.12409456
118	0xbea4d382	-0.32192618
119	0xbe3756e0	-0.17904234
120	0x3d668529	0.056279335
121	0x3e7872af	0.24262498
122	0x3e6f79f8	0.23386371
123	0xbd4d00c0	-0.050049543
124	0x3e56f598	0.20992124
125	0xbdec2f7d	-0.11532495
126	0x3bb0534b	0.005381023
127	0x3e907b0b	0.28218874
128	0x3e8b3657	0.27189896
129	0xbe23d336	-0.1599854
130	0x3e609d12	0.21934918
131	0xbe0da955	-0.13834126
132	0xbe3b2b71	-0.1827829
133	0xbde37155	-0.11105601
134	0x3e72026d	0.23633738
135	0xbb0ac02c	-0.0021171672
136	0x3e8824b9	0.26590517
137	0x3e620132	0.22070768
138	0xbe1f6aca	-0.1556808
139	0x3e2109bc	0.1572637
140	0xbdc282e4	-0.09497622
141	0x3e8234b0	0.25430822
142	0x3da5dac4	0.08098367
143	0x3ca5e1af	0.020249216
144	0xbe6c4706	-0.23073968
145	0xbc42561e	-0.011861352
146	0xbe88783e	-0.26654238
147	0x3ded86a1	0.11597944
148	0xbc7ff25b	-0.015621747
149	0xbde35277	-0.11099713
150	0x3e936750	0.2878976
151	0xbde2b1dc	-0.1106908
152	0x3e2b5274	0.16730672
153	0x3e7ba76f	0.2457559
154	0x3e805f52	0.25072724
155	0xbea06963	-0.31330404
156	0xbeb644c1	-0.3559933
157	0x3d66d86e	0.056358747
158	0xbea8bbc2	-0.32955748
159	0x3dccba41	0.099964626
160	0x3eb0969c	0.34489906
161	0xbe3d245f	-0.18470906
162	0x3dd9ef5c	0.10641357
163	0x3e557ecb	0.20849149
164	0xbd0cabc0	-0.03434348
165	0x3e1dcccc	0.15410155
166	0xbe6141a5	-0.21997698
167	0xbe1c58dc	-0.15268272
168	0xbe31fd69	-0.17381825
169	0xbea38495	-0.3193709
170	0xbe9fb8da	-0.31195718
171	0xbdcb214a	-0.09918459
172	0xbea8dd7c	-0.3298148
173	0x3e0e275c	0.13882202
174	0xbe8ef09e	-0.2791795
175	0xbd893bdc	-0.067008704
176	0x3da4dc52	0.08049835
177	0x3e5522f6	0.20814118
178	0xbe130a37	-0.14359365
179	0x3e377a15	0.17917664
180	0xbe9ebe31	-0.3100448
181	0xbe28a5b7	-0.16469465
182	0xbcae8fbd	-0.021308774
183	0x3e198ba1	0.1499467
184	0x3e5eefb8	0.21771133
185	0x3d865f25	0.06561116
186	0xbe4ca32e	-0.19984123
187	0x3d18a3bf	0.037265535
188	0x3e020006	0.12695321
189	0x3d9839bc	0.07432887
190	0xbd11d308	-0.035601646
191	0xbe97e648	-0.29667878
192	0xbe065f20	-0.13122225
193	0x3d4ed708	0.05049804
194	0x3e2aa914	0.1666606
195	0xbe41b167	-0.1891533
196	0xbe9aa09f	-0.3020067
197	0x3debb054	0.11508241
198	0xbbc525a4	-0.00601645
199	0x3b976ea3	0.004621343
200	0xbe55fc46	-0.20897016
201	0x3ddeb55b	0.108744346
202	0xbe01dab3	-0.12681083
203	0xbe93dc0c	-0.2887882
204	0xbe22e216	-0.15906557
205	0x3e502c8e	0.20329496
206	0x3dc61c26	0.09673338
207	0x3de737d5	0.11289946
208	0x3e89f6dc	0.2694615
209	0xbedec794	-0.4351164
210	0x3e2a89f7	0.16654192
211	0xbd82b19b	-0.06381532
212	0xbe70e8a0	-0.2352624
213	0x3e1e0c89	0.1543447
214	0xbe84e3c7	-0.2595503
215	0x3e7e49d4	0.2483285
216	0x3d0a36be	0.033743612
217	0x3d5784d2	0.0526169
218	0x3db47a9a	0.08812447
219	0xbd3fdd1b	-0.046841722
220	0xbe28fa86	-0.16501817
221	0x3e961781	0.29314807
222	0xbe333645	-0.17501171
223	0x3e6fe13c	0.23425764
224	0xbc9ef7b3	-0.019405222
225	0xbe14ac7e	-0.14518926
226	0xbe38f933	-0.18063812
227	0xbf26226a	-0.6489626
228	0xbea46fc5	-0.32116523
229	0xbd43a423	-0.047763955
230	0x3e351de3	0.17687182
231	0xbc503bff	-0.012709617
232	0x3e5c5ff8	0.21520984
233	0xbe4fcf34	-0.20293885
234	0x3e9cec36	0.30648965
235	0x3e72b9bf	0.23703669
236	0xbed2a77c	-0.41143405
237	0x3e8e6b6d	0.27816334
238	0x3e865013	0.26232967
239	0xbe6a66b3	-0.22890739
240	0x3d016d6b	0.03159849
241	0xbe206a86	-0.15665635
242	0x3d59e11e	0.053193204
243	0x3d981a3c	0.07426879
244	0xbee3bcb1	-0.44479898
245	0x3e6aa20d	0.2291338
246	0x3d716fdf	0.05894458
247	0xbe3606d1	-0.17776038
248	0x3e409bc4	0.1880942
249	0x3e94581b	0.2897347
250	0x3d912699	0.0708744
251	0x3df363ae	0.11884247
252	0x3e9d9eb7	0.30785152
253	0xbe885d43	-0.26633653
254	0x3e2c1030	0.1680305
255	0x3e5a6616	0.21328005

StatefulPartitionedCall/sequential/dense_1/MatMul_bias f4 [10]
0	0x3c81bd53	0.015837347
1	0xbcc2a7a9	-0.023761587
2	0x3d232a3c	0.0398352
3	0x3b8ca0ed	0.004291645
4	0xbd548941	-0.051888708
5	0xbc91d155	-0.017800013
6	0x3c6902aa	0.014221827
7	0x3d4b0d60	0.049573302
8	0xbd0467a3	-0.0323254
9	0xbd18e3fb	-0.037326794
